app/src/main/ml/model.tflite (tflite, 148880 bytes, 10 tensors)

arith.constant f4 [32]
000000 3f bb 05 bc 00 00 00 00 6c ce 82 bc 00 00 00 00
       -0.008162319 0.0 -0.01596757 0.0
000010 b2 9b cc 3c 4b a6 61 bc 54 5e 51 bc 1d 6a 38 bc
       0.024976585 -0.0137725575 -0.012778837 -0.011255768
000020 3d 18 0e 3b 59 1f 47 3b b5 be 92 3b b0 f9 97 3c
       0.0021681928 0.0030383675 0.0044783005 0.018551677
000030 28 3c b9 bc ee e8 86 3c 36 61 39 bc c6 c9 44 bc
       -0.022611693 0.016468491 -0.011314681 -0.012010997
000040 d8 2a 98 3c 15 3f 84 3c 00 00 00 00 33 eb 03 3c
       0.018575117 0.016143361 0.0 0.008051681
000050 69 46 99 3c 74 96 9a 3c 05 4d 43 3c 58 c1 4e 3c
       0.018710332 0.01887057 0.011920218 0.012619339
000060 7b 3b b3 bb 3b cc fa 3b ed bc df bb 66 44 60 bc
       -0.005469737 0.0076537407 -0.0068279416 -0.013688182
000070 87 bc c4 bb 62 a9 00 bc a5 47 19 3c 00 00 00 00
       -0.0060039195 -0.007852884 0.00935546 0.0

arith.constant1 f4 [32]
000000 a3 de 42 bc 8e 8a 1b bb a0 cf c2 bc 3f 63 cf bc
       -0.011893901 -0.0023733708 -0.023780644 -0.025315879
000010 da 12 ec bc 20 89 f1 bb ca 37 64 bc 0d 2c 53 3c
       -0.028817583 -0.007371083 -0.013929317 0.0128889205
000020 08 3c 0e bc 41 d2 41 3c 1d e1 ee 3b e9 74 64 bc
       -0.008681305 0.011829914 0.007290019 -0.013943889
000030 54 da aa bb 4c 98 cc 3c ee 26 41 bc c9 38 cd 3c
       -0.005214015 0.024974965 -0.011789067 0.025051491
000040 a3 13 e8 bc ed 0b b6 bb c3 30 20 bb 11 c4 14 bc
       -0.028329676 -0.005555621 -0.0024443127 -0.009079949
000050 00 00 00 00 06 22 7d 3c 1b 2b 06 bd 7b f8 b4 3c
       0.0 0.015450006 -0.032755952 0.022091141
000060 14 65 92 bc c5 b3 a8 bb 4c a3 97 3c d2 ef d7 bc
       -0.017870463 -0.0051483833 0.018510483 -0.026359472
000070 40 67 28 3c 38 3a a8 bc 63 5c 29 ba ac dd b0 bc
       0.010278523 -0.020535573 -0.0006460605 -0.021590076

arith.constant2 f4 [32]
000000 66 75 93 bb d6 ef ed 3c 81 13 04 3d af c2 87 bc
       -0.004500079 0.029045027 0.032245163 -0.016572325
000010 d8 56 a7 3c 6d e0 e9 3a 4a 6b ff 3b 08 46 9e bb
       0.020427153 0.0017843373 0.0077947723 -0.0048301257
000020 8e 1d 2f bd 15 40 ff bc a6 e5 02 bd 53 08 0e bb
       -0.042752795 -0.031158486 -0.03195729 -0.0021672442
000030 25 85 7d bc f4 0d 78 3c fd 12 7a bd ed 49 50 bc
       -0.015473639 0.015140045 -0.061053265 -0.012712938
000040 f5 87 8a bc cf 04 50 bd 2b 41 16 3c ff 8e 9a 3c
       -0.016910532 -0.050785836 0.009170811 0.018867014
000050 36 20 65 3c d2 70 51 3c 03 b6 e4 3c e0 81 d7 3c
       0.0139847305 0.012783246 0.027918821 0.026307046
000060 26 3c db 3b 78 a5 ff bc 3e d9 18 bd b1 2e 29 bc
       0.00669052 -0.031206831 -0.037316553 -0.0103260735
000070 c7 db 03 bd 35 0d 31 3c 14 48 05 bd 17 10 95 3c
       -0.032192018 0.010806371 -0.032539442 0.018196149

arith.constant3 f4 [32, 3, 3, 32]
000000 ed 6e 57 3d 15 f2 b3 3c 72 9d d7 bc e4 05 6c bd
       0.05259602 0.02196602 -0.026320193 -0.057622805
000010 0b 2e 81 bc e6 ed 6b 3d 58 28 aa bd e3 fd 75 bd
       -0.015769025 0.057599925 -0.08308476 -0.06005658
000020 0d 9d 8b 3d 74 dd b6 3d 9e 47 9c bd 1f e1 b8 bd
       0.068170644 0.089289576 -0.076308474 -0.090273134
000030 50 e5 d0 3c f5 0d 73 3c 0f 14 94 3c 06 a0 9d bd
       0.02549997 0.014834871 0.018075971 -0.07696538
000040 aa 8e 39 3d 35 40 f6 bc 52 a7 73 bd 27 ae bd 3d
       0.04530207 -0.030059913 -0.05948574 0.092617325
000050 7c c1 2b 3d ff e6 7d 3d f6 07 9a bd d5 55 94 3d
       0.041932568 0.061987873 -0.0752105 0.07242934
000060 0f a1 b3 b9 20 b1 9a 3b d3 d7 a2 bd c6 c5 c9 bd
       -0.00034261539 0.004720822 -0.079513215 -0.098521754
000070 b5 06 c8 3d c1 f6 a4 ba 34 b7 a9 3d f7 10 cf bd
       0.09766904 -0.0012585745 0.08286896 -0.10110658
000080 a3 79 44 3b 84 4d 9b bd b5 ad 2e bd 00 77 a5 3b
       0.0029979728 -0.07583144 -0.04264613 0.0050495863
000090 5a a6 b8 3d 87 1f dc bd ba 94 22 bc 3f 8f 89 3d
       0.09016104 -0.10748201 -0.0099231545 0.06716775
0000a0 c8 bd 94 3c 14 07 1c 3d 4c 72 a2 bd 61 57 7d bd
       0.018156901 0.038092688 -0.07931957 -0.06185091
0000b0 c2 0f 0d bd 73 c6 e2 bc 26 cf 44 3d 0f 90 5f 3d
       -0.034438856 -0.027682519 0.048049115 0.054580744
0000c0 73 ed 5e 3d 3c eb d5 bd f1 3e 97 bd dd cc c6 3c
       0.054425668 -0.10445258 -0.07385052 0.024267608
0000d0 46 e8 b0 3d df 54 5b 3d a5 95 ab bd c6 8b 17 bd
       0.08638053 0.053547736 -0.08378152 -0.036998533
0000e0 a9 24 b7 bb 66 fa c3 3d fd eb 31 3d ff 31 66 3b
       -0.005589087 0.09569244 0.043437947 0.0035125015
0000f0 25 70 e1 bb e0 b2 6d ba 88 c6 45 3c 78 10 b5 3b
       -0.0068798237 -0.0009067487 0.012071259 0.005525645
000100 80 fb 7d 3d 21 e6 ea 3c f1 c6 d5 3c a2 9c 9c bd
       0.062007427 0.028674187 0.02609584 -0.07647063
000110 20 5b dc bd c6 15 00 3d 60 d3 ae 3d 43 8d 61 3d
       -0.10759568 0.031270765 0.0853641 0.05506636
000120 48 2f ba 3d 4f 09 85 3d 36 0a 7d 3b 59 95 8a bd
       0.090910494 0.06495916 0.0038610823 -0.06766767
000130 06 7d b3 3d 16 06 5f 3d de dc cb 3c 95 34 bc 3b
       0.08764081 0.054449163 0.024885591 0.005743573
000140 21 73 ee bc f2 bc 85 bd 12 f0 ae 3d c9 df 34 bd
       -0.029107632 -0.06530179 0.085418835 -0.04415873
000150 30 66 29 3c fb 50 8a bd e7 e2 d8 bd a6 7d 99 3c
       0.010339305 -0.06753727 -0.10590153 0.018736672
000160 a2 38 6b 3d 3b 25 c7 bd a4 42 6b 3d 9b 21 d5 bd
       0.057427056 -0.09723898 0.0574366 -0.104068
000170 a6 a9 46 bd ae 67 76 bd 80 b9 38 bb 11 b0 b1 3d
       -0.048501633 -0.06015747 -0.0028186738 0.0867616
000180 7b f1 b4 3d db e4 95 bd 3f e0 7e bd 65 6b fc 3c
       0.08835121 -0.07319041 -0.062225576 0.030812928
000190 f1 c9 b5 3d 53 bf ae 3d bf 93 b3 bd 64 50 7e 3d
       0.08876408 0.08532586 -0.08768415 0.062088385
0001a0 a9 50 a2 3c 84 0e a1 3d f9 cc cb bd 1c 69 0f 3d
       0.019813852 0.07864097 -0.09951205 0.03501235
0001b0 80 ce de 3c fa 03 35 bd 04 19 47 bd e6 00 c0 3b
       0.027198076 -0.044193245 -0.04860784 0.005859482
0001c0 06 22 86 3d 93 56 16 3d d8 99 0d bd 35 e5 b2 bc
       0.06549458 0.036703657 -0.034570545 -0.02183781
0001d0 47 51 9c bd 38 60 8f bd 36 c7 62 bd d0 c7 d6 bd
       -0.0763269 -0.07000774 -0.055365764 -0.1048733
0001e0 d3 2d 6c bc cc 0b 21 bd 10 12 7a 3c cd 4e 85 bd
       -0.014415222 -0.03931789 0.0152630955 -0.06509171
0001f0 cc 46 2e 3d c7 5a 8a bd 32 21 b0 bd ea 81 d6 bd
       0.042547986 -0.06755596 -0.086000815 -0.10473998
000200 c2 43 3b 3c e8 f1 34 bc 9c ae 20 bd 3f d6 2a 3d
       0.011429729 -0.011044003 -0.03922902 0.041708227
000210 34 73 ae bd 18 8f 85 3d 1c 90 98 bc 0d 8b 0b 3d
       -0.08518067 0.065214336 -0.018623404 0.034068156
000220 92 4a 2b 3d b0 8c 46 3d 99 ae 3a bd 4a 58 cd 3c
       0.041819163 0.048474014 -0.045576666 0.025066514
000230 dd fc cc bd 41 70 2b 3d db 1e 6d 3c 67 af ca 3d
       -0.10009167 0.0418551 0.014472689 0.098967366
000240 30 43 37 bd 42 fc 95 bb 2c 6f 60 bb 70 11 be 3d
       -0.04474181 -0.0045771906 -0.003424595 0.0928067
000250 3a 30 d0 3d 3c af fe 3c 22 32 21 bd 44 42 3a bd
       0.101654485 0.031089418 -0.03935445 -0.045473352
000260 b9 8f cf 3c 90 17 e4 bb aa f3 d7 bd 60 65 22 3c
       0.025337087 -0.0069608167 -0.10544522 0.009911865
000270 60 1a 8e bb 78 52 1d bd 74 8b 72 bd 27 96 98 3c
       -0.0043366402 -0.038408726 -0.059215024 0.018626286
000280 45 cc 8d bc 6b 37 4c bd 60 7c ad bb 9c b6 19 bd
       -0.017309317 -0.04985754 -0.0052943677 -0.037527665
000290 c6 0c a3 bd 1a 04 69 3d b0 2e 90 3c 3e 35 86 3d
       -0.07961421 0.056888677 0.017600387 0.06553124
0002a0 7a ce 9b 3d 43 ed eb bb 56 3f bd bd df 5c 44 bd
       0.07607742 -0.0071999147 -0.09240596 -0.04794013
0002b0 df ab ce bd 36 25 73 bd da d8 dc bd 4f 29 ab bd
       -0.100913756 -0.05936166 -0.10783549 -0.08357488
0002c0 90 b6 cd bd 00 97 b4 bb 54 19 b8 3a de 51 cd 3c
       -0.10044587 -0.0055111647 0.0014045634 0.025063451
0002d0 b8 65 0a bc 9a 82 5f 3d a6 bc d6 bd 86 5e e0 bd
       -0.008447103 0.05456791 -0.104852006 -0.10955529
0002e0 0d f2 92 3d e2 61 a3 3d 4f 24 d5 bd 16 c5 b2 3d
       0.07175074 0.07977654 -0.10407316 0.087289974
0002f0 7f 41 aa bd 14 69 39 bd c8 e1 98 3d 07 11 20 3d
       -0.08313274 -0.045266226 0.07464939 0.03907874
000300 25 ac c1 3c 1c b5 77 3d 24 6d b6 bb 88 09 17 bd
       0.023641655 0.060475454 -0.00556721 -0.036874324
000310 5d 18 d5 bd d9 3c 0d bc 02 ee 9d bd ea ed 6d bc
       -0.104050376 -0.008620464 -0.07711412 -0.014522055
000320 b9 76 db bc 5e 73 56 3d 00 8a b8 bd 77 96 d6 bd
       -0.02679001 0.052356116 -0.090106964 -0.10477918
000330 74 55 1c 3d 22 aa 77 3d 09 97 1d bd 36 aa c0 bb
       0.038167432 0.060464986 -0.038474116 -0.0058796657
000340 cf 6a 82 3c db b2 9a 3d b9 77 5a 3c 58 e0 66 3d
       0.01592007 0.07553645 0.013334208 0.056366295
000350 60 c0 c7 bb df aa 1b 3c 47 12 f8 3b 99 2c 65 3d
       -0.006095931 0.009501188 0.007570538 0.055950735
000360 43 0d 07 bd 08 58 1b bd f9 29 be bd ce 9f 8e 3b
       -0.03297163 -0.03792575 -0.092853494 0.0043525463
000370 c2 32 d0 bc dd bb a2 bd b4 e1 87 bd 2f 99 35 bc
       -0.025414828 -0.07945988 -0.06634846 -0.011083885
000380 3f be 3b bc 7d a2 c1 bc 40 7f 93 bd e2 d9 85 bd
       -0.011458932 -0.02363705 -0.072020054 -0.065356985
000390 ed 9e c8 bd aa 52 a3 bd cf fc 2a bd 38 9b 63 bc
       -0.09795938 -0.07974751 -0.041745003 -0.0138919875
0003a0 d2 9e 86 bd 17 f7 11 bd 73 73 95 3c e8 12 05 3d
       -0.06573261 -0.035636034 0.018243527 0.032488734
0003b0 ac 7b a5 3c 76 96 99 3d 3a 02 b3 bb c5 9a 01 3b
       0.020200573 0.07499401 -0.005462912 0.0019776088
0003c0 72 e9 54 3d ad 7d 1d 3c 84 c2 60 3d 14 cc 22 3d
       0.051980443 0.009612483 0.054873005 0.039745405
0003d0 d0 69 48 3d b6 b1 2d 3d e0 97 31 bd 3c 7f 7c bd
       0.048929036 0.042405806 -0.04335773 -0.061644778
0003e0 62 4e 92 bb 88 3c 10 3d 83 78 e4 3c d8 cb 96 bd
       -0.0044649104 0.035213977 0.027889496 -0.07363099
0003f0 18 21 37 bc d1 29 8d bd ff ee 54 bd 5d ea 07 bd
       -0.011177324 -0.068927415 -0.051985737 -0.03318249

arith.constant4 f4 [32, 3, 3, 32]
000000 df 5e aa 3d 60 ba b9 bd 80 ba f5 bc f0 bf b1 bd
       0.083188765 -0.09068751 -0.029996157 -0.08679187
000010 ce 13 67 be c6 ae eb 39 99 b3 4a bd 02 74 1f bd
       -0.22566149 0.0004495291 -0.049487684 -0.038928993
000020 5b 65 ca bd 80 d5 01 3d 16 bc 78 3d 58 4f ac 3d
       -0.09882613 0.03169775 0.060726248 0.08413571
000030 c2 42 5a bd 87 fc 7a 3c 43 11 aa 3c 10 0b 7b bd
       -0.05328632 0.015318996 0.020760184 -0.061289847
000040 e4 18 16 bd bf 8a 5b bc 7a 20 f3 3d 72 44 38 bc
       -0.03664483 -0.013399779 0.11871429 -0.011246787
000050 cd b8 a9 3d ac a3 8f bc bb 6f 63 3c e8 f0 aa 3c
       0.08287201 -0.0175341 0.013881619 0.020866826
000060 6b 93 70 bc 3f 07 1e bd ec 19 88 3d cf c8 49 bd
       -0.014683585 -0.03858113 0.06645569 -0.04926377
000070 10 41 90 3d ff d5 20 bd 10 5b ff bc 7c 29 33 3d
       0.0704366 -0.039266583 -0.031171352 0.043740734
000080 fb c2 d3 3d d8 f1 bf bd 09 aa 9a bd 04 12 76 bd
       0.10339924 -0.093723 -0.07551963 -0.060075775
000090 e3 0d c6 bd 88 de f3 bc 6e dd bf 3d c5 13 75 bc
       -0.096706174 -0.029769197 0.09368406 -0.014958327
0000a0 aa 9f 1c bd e5 6c 64 3d ed ff 87 3c 71 f3 bb bd
       -0.038238205 0.055767912 0.016601527 -0.09177292
0000b0 35 9f 70 3d 71 00 13 3d 76 c1 30 bc 8d 69 bc bc
       0.05874558 0.035889093 -0.010788312 -0.02299955
0000c0 10 7a 1d 3d d4 66 e3 bb 23 e4 20 bc 53 32 e7 3d
       0.038446486 -0.0069397483 -0.009820017 0.112888955
0000d0 c6 0e f6 3c d3 e3 dc 3d a6 d2 10 bd 15 45 53 bd
       0.030036341 0.107856415 -0.03535714 -0.051579554
0000e0 a9 cc 13 b9 1d 9a c0 3c f5 0a 95 bd 3f bf 56 3d
       -0.00014095254 0.023510987 -0.072774805 0.05242848
0000f0 fb f1 13 3b f3 ad e6 3d 54 23 a4 bd 24 53 00 3e
       0.0022574652 0.11263647 -0.08014551 0.12531716
000100 8e b7 e3 3d fd 2c 48 bc a5 de 64 3d 13 0a 10 bd
       0.11118995 -0.012217757 0.055876393 -0.035165858
000110 f0 27 a6 bd 9d d9 ad 3d 5c 85 03 3e dc eb 91 bc
       -0.08113086 0.08488772 0.12843841 -0.017812662
000120 b5 e3 85 bc b9 2b bf 3d a5 4a 0b 3c 0e a0 ef bc
       -0.01634393 0.09334511 0.008501683 -0.029251125
000130 d0 d4 71 3d 6c ec b1 3d 05 d7 49 3d 88 5e a5 bd
       0.059040844 0.08687672 0.049277324 -0.08074671
000140 f3 aa dd bc 58 fd ff bc ed 7b d1 3d f5 9c 28 3d
       -0.027059054 -0.031248733 0.10228715 0.04116531
000150 f3 7f 45 3d 8f 10 c0 3d c2 e9 8f bd a1 74 99 3d
       0.048217725 0.09378158 -0.07027008 0.07492948
000160 d9 ee 2b bd 3a 6f df 3d 9e 89 9c 3d ae 87 b0 3c
       -0.04197583 0.10909887 0.07643436 0.021549072
000170 72 4e de 3d 15 92 41 bd 65 22 99 bd ea ee 00 3e
       0.10854806 -0.047258455 -0.07477263 0.12591138
000180 55 af 7f bd 95 64 e3 3d a5 9d 7a 3c ad aa 26 3d
       -0.06242307 0.11103169 0.015296374 0.040690113
000190 06 9c 61 be 6f 56 9f 3d 51 1c a4 3c cb c0 1b 3d
       -0.22032174 0.07780158 0.020033034 0.03802566
0001a0 8c 15 3e 3d 7b 60 13 3b 51 3f a9 3d f8 da 47 3d
       0.046407267 0.0022487927 0.0826403 0.04879281
0001b0 40 e3 f1 3c 68 99 a9 3d 3e f4 38 3d 86 9a e5 bd
       0.029527307 0.08281213 0.045154803 -0.11211114
0001c0 35 81 3c bd 92 11 47 3d ab 15 75 3d 57 c6 a3 3d
       -0.04602166 0.04860074 0.059835117 0.07996815
0001d0 7c f2 a2 bc 3c 71 4b 3d 38 7e 2b 39 78 f7 7d 3d
       -0.019891016 0.049668536 0.00016354851 0.062003583
0001e0 83 36 fc 3d d2 40 10 3d 9d 52 45 3c 62 49 c3 3d
       0.12315085 0.035218067 0.012043622 0.09535481
0001f0 f9 73 85 bd 73 eb 11 3d d7 a3 86 bd 76 9f a6 3d
       -0.06516261 0.035624932 -0.06574219 0.081358835
000200 15 be 39 3d 4f ac 85 bb 7d a5 a9 bd ca a0 c7 3d
       0.045347292 -0.0040793787 -0.082835175 0.09747465
000210 5d 29 66 be 90 00 82 3d f2 b9 68 3d 1f 1e da bc
       -0.22476716 0.063477635 0.056817956 -0.026625691
000220 fe 07 6b 3c 72 70 50 bd 7c a6 c2 bd 41 7f 5d bc
       0.014345167 -0.050888486 -0.095044106 -0.013519109
000230 b0 e5 6e bd e2 59 58 bd 72 d0 a0 3d 5c 47 e3 bd
       -0.058324516 -0.052820094 0.07852258 -0.11097595
000240 89 ab da 3d 53 1e 59 3d e7 10 a4 3d 9e ad b6 bd
       0.10677249 0.053007435 0.08011036 -0.089198336
000250 b6 9d 57 3c 26 93 08 bd 0f 9b 00 3e a2 7c 44 bc
       0.01316016 -0.033343457 0.1255915 -0.011992605
000260 14 93 4b 3a b0 e0 9d 3d 13 b9 ad bc c4 70 f8 3d
       0.0007765752 0.07708871 -0.021206414 0.12130883
000270 4d 8c bc 3a 9e e5 d3 3d 64 3d 46 bd bb 00 06 3e
       0.0014385075 0.103465304 -0.04839839 0.13086216
000280 1b c0 d0 bd 2a fd 92 3d c8 f7 b9 3c 86 46 9c 3d
       -0.10192891 0.071771935 0.02270116 0.07630639
000290 7d c4 c8 bd ee 87 d6 3d 87 ac 76 3d 95 03 ac 3b
       -0.09803102 0.10475145 0.06022313 0.0052494504
0002a0 5e e2 81 3d 69 50 a4 bd 68 21 88 3d a2 80 7f 3c
       0.06342004 -0.080231495 0.06646997 0.015594633
0002b0 bc 54 3f 3d 29 e5 ab 3d 14 a8 6e 3b a3 5f 41 bc
       0.04671167 0.08393318 0.00364161 -0.011802587
0002c0 e8 84 85 3d b4 c9 fd bc b0 a8 0d bd 24 be 73 3d
       0.065194905 -0.030979969 -0.0345847 0.059507504
0002d0 8e 7e 07 3e 1c 68 bb bc eb 2b 96 bc eb 38 01 bd
       0.1323187 -0.022876792 -0.018331489 -0.03154842
0002e0 c6 6e 4e bc 42 45 32 3d 1c 08 b0 bd ca 60 f3 3d
       -0.012599653 0.04352308 -0.08595297 0.118836954
0002f0 89 33 33 3d fa 36 46 bd fb 30 d6 3c 74 a1 4e bd
       0.04375032 -0.048392273 0.026146403 -0.050446942
000300 23 d2 b4 bd 20 df 9b 3d 4e 11 d7 3d 07 aa c2 bd
       -0.08829143 0.07610917 0.105013475 -0.095050864
000310 17 f9 48 be c5 a5 c8 bd 08 7c 0e 3e d6 f8 09 3e
       -0.1962627 -0.09797243 0.13914502 0.1347383
000320 1d 60 e9 bc e5 7f dd bc 25 8b d2 3a 1a fc 22 bd
       -0.028488213 -0.027038524 0.0016063197 -0.039791204
000330 13 8a 0b be f6 38 c4 bc e5 2a c2 bb a8 1d 8f bd
       -0.1362689 -0.023952942 -0.0059255236 -0.06988078
000340 08 b7 05 bd f8 9b 5a bb 44 0e ff 3c 85 08 db 3c
       -0.032645255 -0.0033357125 0.031134732 0.02673746
000350 64 04 80 3d c1 68 55 bd 5a 85 48 bc 21 64 d5 bc
       0.062508374 -0.052101854 -0.012238825 -0.026048722
000360 6a 2f 6b bc a5 ff 96 3d 9a a0 db bd 91 0b b6 3d
       -0.014354566 0.07372979 -0.10723992 0.08888925
000370 63 e4 bc 3d f7 9f fb 3d e3 78 63 bd 9f d9 45 3d
       0.09223249 0.1228637 -0.05553521 0.048303243
000380 b6 54 29 bd ad 33 35 bd 5e 59 f7 bd eb 96 57 3d
       -0.041340552 -0.044238735 -0.12077592 0.05263416
000390 08 86 2b be 25 fe 8f 3d 72 64 1e 3e 4c 20 b0 3d
       -0.16750348 0.07030896 0.15468004 0.0859991
0003a0 cf a6 c2 bd d5 d9 0d bb c3 c2 a5 bd 76 2d 48 bd
       -0.095044725 -0.002164473 -0.080937885 -0.04887148
0003b0 fd 76 49 bd 88 0a 44 3d 6c 84 c1 3a 5d d7 8b bd
       -0.04918574 0.047861606 0.0014764196 -0.06828187
0003c0 67 2f 73 3d d8 c1 15 3b 65 19 e7 3d ff 1a 40 bd
       0.05937138 0.0022851136 0.112841405 -0.046900745
0003d0 53 47 ec 3d 3a 40 c9 3d 84 8e 2f bc 35 b0 04 bd
       0.115370415 0.09826703 -0.010715131 -0.032394607
0003e0 9f 46 7f 3d 6d 15 a2 3d 68 ae 26 bd 39 77 1d 3e
       0.06232321 0.07914243 -0.04069367 0.15377511
0003f0 27 c0 82 bd 66 0e 97 3d 19 18 a3 bd d1 84 84 3d
       -0.063843064 0.07375793 -0.07963581 0.06470645

arith.constant5 f4 [3, 128]
000000 a3 8a 2a bb c3 e6 f2 bd b0 15 b7 bc 49 86 27 3e
       -0.0026022575 -0.118604206 -0.022349209 0.1635982
000010 a0 ea 2c 3c 6e 58 05 3e 8d 44 77 3e 30 eb 0a 3e
       0.010553986 0.13022014 0.24147244 0.1356628
000020 a6 10 0a be 6d eb 82 bd d3 dd eb bd 53 94 68 3d
       -0.13482913 -0.0639256 -0.11516919 0.056782078
000030 bf 50 d8 3d 0d 55 1f 3e 77 09 0e 3c 88 85 58 3d
       0.10562276 0.15559788 0.008669249 0.05286172
000040 b3 69 08 3e 7c 68 4a 3d f9 2a 97 3c 94 c7 13 bc
       0.13321571 0.04941605 0.018453108 -0.009019751
000050 70 2b c1 3d bf 02 68 bd 50 06 f7 3d 73 3c 4c 3e
       0.09432113 -0.056643244 0.12061751 0.19944935
000060 dc 59 33 3d e7 c9 02 be 02 d3 12 bd 3a 68 cf bd
       0.04378687 -0.12772332 -0.035845764 -0.101273015
000070 83 55 a1 3d 17 61 90 bd df 1c 42 3e d2 d0 97 3d
       0.07877638 -0.070497684 0.18956326 0.07412876
000080 ae 7e 2c 3e 1b b1 f9 bc 8e bf 06 3e cc 7d 58 3d
       0.168452 -0.030479958 0.1315901 0.052854344
000090 46 41 4c 3e d7 e6 6b be c4 b6 f4 bc c8 e5 0f be
       0.19946775 -0.23037277 -0.029872306 -0.14052498
0000a0 6d 49 13 3e 0b 63 da bd c2 c0 34 3d e8 8e b7 3d
       0.14383478 -0.10663422 0.04412914 0.08962804
0000b0 78 49 5e bc 18 26 53 be b5 2f dd bd 99 6e 48 be
       -0.013567321 -0.2062 -0.10800115 -0.1957344
0000c0 83 bb 12 3e 4f 73 b5 3c f7 bc 2c be 30 36 5b bd
       0.14329343 0.02214971 -0.1686896 -0.053518474
0000d0 df 0b f3 3d bb 7f 87 bc e4 a1 cf 3c b0 15 6c 3c
       0.118674986 -0.016540399 0.02534575 0.014409468
0000e0 17 24 21 be 08 6e c5 bc 09 de c6 bd ea ef 51 be
       -0.15736423 -0.024100319 -0.097103186 -0.20501676
0000f0 af 40 29 bd 81 1c 65 be de 23 b7 bd 34 53 bc bd
       -0.041321453 -0.22374155 -0.08942388 -0.09195557
000100 48 e4 4e bd 26 d9 45 3e c1 38 9e bc b0 4c e7 bd
       -0.050510675 0.19321117 -0.019314172 -0.11293924
000110 ca e7 16 be 11 ab 31 be 27 4a aa 3d d7 6f c9 3d
       -0.14736858 -0.17350413 0.08314925 0.09835785
000120 22 7d 42 3e d2 4a 8e 3d 92 a3 23 be 78 f7 eb bd
       0.18993047 0.069478646 -0.15980366 -0.1152181
000130 83 d5 59 3d ff 4c 0f be 04 f3 05 be 40 60 34 3e
       0.053182136 -0.13994215 -0.13080984 0.17614841
000140 4e 1d 2c be 0c 52 52 bd 54 70 20 be 68 3a 35 3e
       -0.16808054 -0.051347777 -0.1566785 0.17698061
000150 9e 10 2d 3e d4 1f 0a 3c e2 c8 02 3e e4 cc e9 bb
       0.1690087 0.00843044 0.12771943 -0.0071350206
000160 c4 c9 0e be 53 2e 2f bd a3 e4 98 3a 58 2d e6 3d
       -0.13944155 -0.042768788 0.0011664819 0.112391174
000170 f0 9b 19 be bc d2 f1 3d 42 1b 5f 3e f8 a2 69 3e
       -0.15000892 0.118077725 0.21787742 0.22816074
000180 b3 24 58 3e 88 e9 a9 bc 0f 7c 81 3e 33 c9 38 3e
       0.2110775 -0.02074124 0.25289962 0.18045501
000190 a3 78 9e 3d 6e 09 90 3d de 50 d3 3d 62 2d 35 3d
       0.077378534 0.070330486 0.103181586 0.044232734
0001a0 f9 cf ef bd f7 ee 51 be 0d 78 d3 bd 10 c3 b5 3d
       -0.117095895 -0.20501314 -0.10325632 0.08875096
0001b0 d4 4a b0 bc 90 13 47 bc 6e 25 37 3e 12 a3 ed 3c
       -0.021520056 -0.01215066 0.17885372 0.029008422
0001c0 a0 38 06 bd 19 ce 87 3e 13 11 14 3e 59 79 80 3e
       -0.032768846 0.26524428 0.14459638 0.2509258
0001d0 24 65 23 3e 60 30 28 be 73 ff 0f be 33 74 37 3e
       0.15956551 -0.16424704 -0.1406229 0.1791542
0001e0 60 d9 11 be 30 21 ab bd 0d a4 19 3d 42 7e ef 3d
       -0.14243078 -0.083559394 0.037509967 0.11694004
0001f0 46 4c 64 3e e8 c7 49 bd 33 83 5b 3e f9 b0 46 3e
       0.22294721 -0.04926291 0.21436767 0.19403447
000200 3a d1 30 be 4c 8f 2f be c4 f6 76 3e f4 1c 5e 3d
       -0.17267314 -0.17144507 0.24117571 0.05422683
000210 1a 69 e5 bd 6b de 48 3e 74 f0 13 3e 11 0f 27 be
       -0.11201687 0.19616096 0.14447194 -0.16314341
000220 2b f3 23 3e 7d 7e f1 3d 22 4f 42 3e 27 7e 8c bb
       0.1601073 0.11791704 0.189755 -0.0042874995
000230 97 e4 0b be bc 4f 80 3d d7 e8 d5 bd 26 36 9a bd
       -0.13661419 0.06265208 -0.10444801 -0.07529859
000240 22 65 f3 3d 3c 6d 4f be 9c 45 62 3e 0a bb 48 be
       0.11884524 -0.20256513 0.22096866 -0.196026
000250 f5 37 ff 3d 97 36 54 3e 6f af f9 bd 11 57 4f be
       0.12461845 0.2072395 -0.121916644 -0.20248057
000260 62 6b e8 3d ed cf 05 3e 6e 4f 3c 3e 79 5e 28 be
       0.11348607 0.13067599 0.18389675 -0.16442288
000270 78 0e 4f 3d 70 68 af 3d aa 60 f7 bd 68 1f 88 3c
       0.050550908 0.08564842 -0.12078984 0.016616538
000280 18 48 50 3e ea b9 73 3d 06 3b d7 3d 01 e8 1a 3e
       0.20340002 0.059503473 0.10509305 0.15127565
000290 36 94 b9 bd 4e 22 ae bd 70 cd 23 3e b2 38 9d 3d
       -0.09061472 -0.08502637 0.15996337 0.076768294
0002a0 98 1a 07 3d b1 e9 05 3d 56 1c 00 be 5c 40 27 3e
       0.032984346 0.03269357 -0.1251081 0.16333145
0002b0 e8 1b 48 3e 0e 43 8f 3d 5f 38 94 bd a5 be 9f bd
       0.19541895 0.069952115 -0.072373144 -0.078000344
0002c0 97 e2 3b be ab 88 cd bd 05 5a 06 bd 3c 1e a1 bc
       -0.18348156 -0.10035833 -0.032800693 -0.019667737
0002d0 db c8 e6 bc 8b 45 4b 3e ef ed 64 be 00 23 ab 3c
       -0.028171947 0.19850747 -0.2235639 0.020890713
0002e0 64 15 41 3d bb df 03 3e cb 8c 87 3d af cd e6 bc
       0.04713954 0.12878315 0.06618651 -0.02817425
0002f0 a0 98 22 3e b6 00 0c be a2 ff 11 3e 71 bd b6 bd
       0.15878534 -0.13672146 0.14257672 -0.08922852
000300 7b 79 6c 3d 79 a2 e8 bd 65 eb c9 bd 10 d1 65 3c
       0.05773304 -0.11359114 -0.09859351 0.014026895
000310 e5 f7 19 be 21 55 ee bd 9d 7f 22 bc 31 dd 48 be
       -0.1503597 -0.11637331 -0.009918121 -0.19615628
000320 17 ff 22 be 5a 25 65 be ab f0 b1 3d e8 1a df bc
       -0.15917622 -0.2237753 0.08688482 -0.02723451
000330 53 21 37 3e c6 c6 b7 3d 8b f6 0e 3a ac 6d 4e 3e
       0.17883806 0.0897346 0.0005453608 0.20159024
000340 80 b0 41 3e e9 7a 69 be 34 ab 77 3d e3 03 09 3d
       0.18914986 -0.22800793 0.060466006 0.033450972
000350 6c 28 00 be c0 ff 75 be ce 00 20 bb a9 ac ea 3d
       -0.1251542 -0.24023342 -0.0024414542 0.114587136
000360 26 04 65 bc 17 7e 1b be ad 6b 1b be 52 31 25 be
       -0.01397804 -0.15184818 -0.15177794 -0.16132095
000370 a6 65 49 3e bc d8 36 3e 54 98 c5 bc 58 51 1e be
       0.19667682 0.17856115 -0.024120487 -0.15460718
000380 02 10 a4 bd 75 e4 1d bd 26 59 f8 bd 34 aa 61 3d
       -0.08010866 -0.03854795 -0.12126379 0.05509396
000390 fd aa f8 3d 99 12 23 3e f9 c0 50 3e 15 c5 48 bd
       0.121419884 0.15925063 0.20386113 -0.049016077
0003a0 d4 a9 2e 3d 69 a0 47 bd 97 69 55 3e 9a 45 ac 3d
       0.04264243 -0.048736963 0.2084106 0.08411713
0003b0 de ad 85 bd df f0 56 3e b4 93 a6 3d 79 78 6c 3d
       -0.06527303 0.20990323 0.08133641 0.05773208
0003c0 a2 66 f1 bd 86 fa 76 bd 01 b9 3d 3e 3c 94 9f 3d
       -0.11787154 -0.06029751 0.18527605 0.07791945
0003d0 18 6f 47 be dc 4b 32 3d cb 43 55 bd 7c 3e 12 be
       -0.19475973 0.043529376 -0.052066606 -0.14281648
0003e0 c9 c8 f5 3d a8 54 47 3e ff 84 cf bd b8 16 97 3d
       0.12001187 0.19465888 -0.10132789 0.0737738
0003f0 f3 f0 40 be 06 60 52 3e f8 ef b2 3d 87 24 3a 3e
       -0.18841915 0.20544443 0.08737177 0.18177997

arith.constant6 f4 [128, 128]
000000 da 24 7d bd c0 76 14 bc 78 26 7d bd 50 c4 7f 3d
       -0.061802723 -0.009061515 -0.061804265 0.062443078
000010 07 14 aa 3d 5e 42 1b be fb 5d 16 be e5 c6 8f 3d
       0.08304601 -0.15162036 -0.14684288 0.07020358
000020 aa 8f d9 3d dc d2 cd bd 86 0b be bd d2 84 56 bd
       0.10623105 -0.10049984 -0.09279542 -0.05237276
000030 a6 62 a2 bd 17 67 ea bd 9f cc aa bd 51 90 10 3e
       -0.07928972 -0.11445444 -0.083398096 0.14117552
000040 40 89 90 3d ab fb 96 3c 20 d2 d7 bb 04 6a 02 bd
       0.07057428 0.018430552 -0.006586328 -0.031839386
000050 ee b3 d2 bd d3 f4 ab 3d e8 97 48 3d 09 45 95 bd
       -0.10288225 0.08396306 0.048972994 -0.07288558
000060 5c da 58 3d 8b 23 ee 3d 9a 24 d4 3d cf a6 01 be
       0.05294262 0.11627873 0.10358544 -0.12661289
000070 26 b4 e4 bd 72 20 5e bd b2 42 e6 bd 68 fa 7c 3d
       -0.11167173 -0.05423016 -0.1124319 0.061762244
000080 1e 84 e4 3d d3 2f 02 be a3 3c 1a be 24 c9 18 3d
       0.11158012 -0.12713556 -0.15062194 0.037301198
000090 43 f0 e3 3c 1b ae 9b 3d 4c 34 0f 3d e2 fe cb 3c
       0.027824527 0.07601567 0.034961984 0.024901811
0000a0 14 a1 fe 3d fd 61 20 3d ee 6f 11 3e 50 c9 c7 3d
       0.12433067 0.03915595 0.14202854 0.09755194
0000b0 59 fb ea 3d f6 be 77 3d 2b 90 09 bd 41 58 ea bd
       0.11473722 0.06048485 -0.033584755 -0.11442614
0000c0 9a 81 cf 3d 9d 9e ef 3d 8e 67 0b be 50 0d a7 3d
       0.101321414 0.11700175 -0.13613722 0.08156836
0000d0 93 4f 98 bd 2b fa b0 bd 1c 30 63 bd 16 e0 e3 3d
       -0.074370526 -0.08641466 -0.055465803 0.111267254
0000e0 03 e5 ca bd 84 6e 3d 3d c0 f7 a2 3d 2c 6e 2f bd
       -0.09906962 0.046247974 0.07957411 -0.042829677
0000f0 14 b5 0f bd 88 39 e4 bc 68 4c 14 be 23 9b ea bd
       -0.0350848 -0.027859464 -0.14482272 -0.11455371
000100 e5 09 11 be 2f 02 1b be 84 1a fa bd dc 24 fc bd
       -0.1416393 -0.15137552 -0.12212089 -0.12311718
000110 9c 1d b6 3d fa 0a e2 bd f1 df d4 bd a3 f6 0b bd
       0.08892366 -0.1103725 -0.10394276 -0.034170758
000120 40 0e 16 bd ce 58 94 bc cf 33 5c 3d 00 0f 25 bd
       -0.036634684 -0.018108752 0.053760346 -0.04029751
000130 25 40 05 be e4 93 b1 bd d4 c4 d6 bc 28 64 24 3d
       -0.1301275 -0.08670786 -0.026216902 0.04013458
000140 4a 60 6a bd 8a 02 47 bd b0 8b 69 bd 8b 85 bf bd
       -0.057220735 -0.048586406 -0.057017982 -0.09351643
000150 51 8a a8 bd c0 bc 8f 3d ab b3 87 bd a7 b5 13 be
       -0.08229507 0.07018423 -0.06626066 -0.14424764
000160 a0 3e a2 bc e0 17 16 3a c0 94 44 3c be 80 92 3d
       -0.019805253 0.00057256036 0.011998355 0.07153462
000170 6c 3d 7d 3d 50 da 7a bd be c2 0d be d2 02 09 bd
       0.061826155 -0.061243355 -0.1384382 -0.033449955
000180 08 86 3c 3d 20 46 59 3c 2b 0e 0d be 28 d5 60 3d
       0.04602626 0.013261348 -0.13774936 0.05489078
000190 19 e1 cc bd 0f 38 1b 3d 1c c3 1d be 58 06 e8 bd
       -0.100038715 0.03789526 -0.1540646 -0.11329335
0001a0 6a 39 21 bd d8 76 84 bd b0 c9 10 bd f0 a3 d2 bc
       -0.039361395 -0.0646798 -0.035348594 -0.025712937
0001b0 84 b1 f4 bd 56 5d 77 bd ad da 2e 3d 94 3d ec bd
       -0.11947921 -0.060391746 0.042689014 -0.115351826
0001c0 90 8b 50 3c 0f a2 9d bd 60 c6 ae 3b aa c0 cb bd
       0.012728587 -0.07696926 0.0053337067 -0.09948857
0001d0 28 92 07 be 14 83 89 3d f8 40 17 be 84 81 0b bd
       -0.13239348 0.06714454 -0.14770877 -0.034059063
0001e0 39 1e 06 be d4 97 03 3e 15 49 00 3e 5c 65 c2 3c
       -0.13097467 0.12850887 0.12527879 0.023729973
0001f0 ee 33 66 bd 3d f7 19 be e9 bb 55 3d 31 cf 0b 3e
       -0.056201868 -0.1503572 0.05218116 0.13653256
000200 d0 a3 02 bc 18 2c f6 3c c0 1b e6 3b 3a 3c d2 bd
       -0.007973626 0.030050322 0.007022351 -0.102653936
000210 b2 6a e2 3d f0 7c 5e 3c 56 a1 ea bd fd 5f f0 bd
       0.11055507 0.013579592 -0.11456554 -0.11737058
000220 1c 40 fc bd 90 96 06 bd 26 ad e1 bd 1e 9a d6 3d
       -0.123169154 -0.03285843 -0.110193536 0.10478614
000230 ba 24 83 bd c0 41 e1 bc 10 73 87 bc e0 0d 95 3b
       -0.064034894 -0.027497172 -0.016534358 0.004548773
000240 68 3d 94 3c 07 b2 11 be f6 e5 0b be f4 a4 88 bd
       0.018095687 -0.14228068 -0.13661942 -0.06672087
000250 ab 93 da bd 04 6d 06 be e0 1e 29 3c 08 a8 eb bc
       -0.10672697 -0.13127524 0.010322303 -0.028766647
000260 a5 9e b3 bd a0 5a c6 bc 8b 56 0d be e0 74 b8 3c
       -0.087704934 -0.024213135 -0.13802545 0.022516668
000270 d6 7d e8 3d 66 e5 f3 bd 00 08 52 bc 40 07 f7 3c
       0.11352126 -0.11908989 -0.01281929 0.030154824
000280 53 18 10 3e a0 81 d4 bb 88 b6 76 3d de d3 b5 3d
       0.14071779 -0.006485179 0.06023267 0.08878301
000290 f1 54 1a be ca 14 db 3d 0f cc 85 bd 37 c0 0d 3e
       -0.15071465 0.106973246 -0.06533062 0.13842855
0002a0 70 ad 1b be 24 53 ac bd fc 9d 02 be 0e 45 dc 3d
       -0.1520288 -0.08414295 -0.12755579 0.10755359
0002b0 f0 a7 1b be 60 bd 5b 3d 26 4a 93 3d 80 10 9a bb
       -0.15200782 0.0536474 0.07191877 -0.004701674
0002c0 c8 7a 13 be e8 d8 99 3d 33 2e 9e bd 44 7f 5c bd
       -0.14402306 0.07512075 -0.077236556 -0.053832307
0002d0 aa 86 ad 3d ec 55 72 3d 10 5f 08 bc 70 0f 3a bd
       0.08472951 0.059163973 -0.008323446 -0.04542488
0002e0 3e a1 cc 3d 12 93 fe bd d4 a7 15 be 4a 07 74 bd
       0.09991692 -0.12430395 -0.14614803 -0.059577264
0002f0 1a ae e4 3d 57 b3 f7 bd f6 62 87 3d 5c a8 d1 bd
       0.1116602 -0.12094753 0.06610672 -0.1023719
000300 8a ef b9 bd 1b 9e f0 bd 76 1f e9 3d 92 92 c4 3d
       -0.090788916 -0.11748906 0.11382954 0.095982686
000310 0f 92 0a be d0 55 a2 3d fb 43 0e be 00 14 64 b9
       -0.1353228 0.07926524 -0.1389312 -0.00021751225
000320 f2 89 f3 bd 54 71 7a bd 70 5a c9 3c fe 7b dd 3d
       -0.11891545 -0.061143234 0.024579257 0.10814665
000330 99 42 96 bd 72 8c 33 bd 58 2c 3b bd 50 83 b1 3c
       -0.07336921 -0.04383511 -0.045696586 0.02166906
000340 7e 55 e5 3d 12 d0 a9 3d 00 90 f0 ba 6c 99 7c 3d
       0.11197947 0.082916394 -0.0018353462 0.061669752
000350 b6 e4 fe 3d 80 24 25 bc b8 70 96 3d 50 f9 fa bd
       0.12445967 -0.010079503 0.07345718 -0.12254584
000360 74 15 27 bd 27 dd 10 3e 5b a0 93 bd b2 fc 4d bd
       -0.040791944 0.14146863 -0.0720832 -0.050289817
000370 30 81 0c 3d f9 c8 0c 3e a6 85 d7 bd 26 b6 31 bd
       0.03430289 0.1374854 -0.10523538 -0.0433866
000380 e1 e9 13 be c1 96 04 be 10 00 0a 3c 60 83 83 bb
       -0.14444686 -0.12948133 0.008422866 -0.004013464
000390 aa 11 cb 3d 26 e3 b6 bd fa 9f be 3d a1 26 12 be
       0.099154785 -0.08930044 0.09307857 -0.14272548
0003a0 a2 e8 ca 3d f3 dc a1 bd 3e f1 35 bd be 86 cc 3d
       0.099076524 -0.07903471 -0.04441952 0.099866375
0003b0 80 1c 21 3c 4e 88 7b bd c0 11 00 bb 58 bd c1 bc
       0.009833455 -0.061409287 -0.001954183 -0.023649856
0003c0 fc 8c 1a be 18 0c ce bc 4c d3 b0 3d 9e 00 83 3d
       -0.15092844 -0.025152251 0.08634052 0.06396602
0003d0 fa 4b d9 3d 5c 2c 90 bd e8 3f c6 bc 02 2f cc 3d
       0.106101945 -0.07039711 -0.024200395 0.099699035
0003e0 2f 5e 07 3e 3a 08 34 bd d8 65 d3 bd 4c b2 08 3d
       0.13219522 -0.043953158 -0.103221595 0.033373162
0003f0 80 cb 55 3b ed a3 05 3e 66 5d ff bd e0 03 c6 3b
       0.0032622516 0.13050814 -0.12468986 0.0060429424

arith.constant7 f4 [128]
000000 ee 6b 89 bb 00 00 00 00 6a 95 c9 bb 91 6d 98 bb
       -0.0041937744 0.0 -0.0061518447 -0.004651733
000010 00 00 00 00 3f 14 66 bc 5f 26 ce bb f8 ff 66 3b
       0.0 -0.014042913 -0.0062911953 0.0035247784
000020 30 5d 45 bb 88 f8 5b bc 34 33 cd bb 9d 4a 8f 3c
       -0.0030115359 -0.013425954 -0.0062622074 0.017491633
000030 58 31 11 3c d0 f6 1e bb c1 6c ab 3c 9a f7 2b 3c
       0.008861862 -0.0024255998 0.020925881 0.0104960445
000040 00 00 00 00 a8 65 21 3c 9c 2f 29 bc d4 b8 21 bc
       0.0 0.009850897 -0.010326292 -0.009870727
000050 7a 17 33 bc 86 62 bf bb 57 ac 76 3c 00 00 00 00
       -0.01093089 -0.0058406023 0.015055737 0.0
000060 00 00 00 00 3f 7f 0b 3c 0b 44 53 bc 60 09 2e 3c
       0.0 0.008514225 -0.012894641 0.010622352
000070 91 b6 4e bb 65 6a d5 bb 00 00 00 00 00 00 00 00
       -0.0031541924 -0.0065129274 0.0 0.0
000080 d3 da 22 bb 7b 23 70 3a 2e f9 cf bb 00 00 00 00
       -0.0024849668 0.00091605604 -0.006346843 0.0
000090 bf f0 5d 3c 3c 13 a0 3b 71 6f 0c bc 3c 3b 8c bc
       0.013546168 0.0048851054 -0.008571492 -0.017118089
0000a0 84 6b 86 ba f4 6c c5 bb fe a2 62 3c 83 a3 56 bc
       -0.0010255431 -0.006024951 0.013832806 -0.013100508
0000b0 80 7e bf bb b0 5b 43 bc db b3 14 3c 8e 37 b3 3b
       -0.0058439374 -0.0119237155 0.009076084 0.005469269
0000c0 5b db 48 3c a8 59 42 bc af 0b ef 3b c7 4e bc 3c
       0.01225933 -0.011862196 0.007295094 0.022986783
0000d0 48 c8 fd bb 8a cb d8 3b 61 a8 83 3c 00 00 00 00
       -0.0077448227 0.0066160606 0.0160715 0.0
0000e0 6f 47 43 ba 00 00 00 00 77 9a 37 bc 6b 49 46 bb
       -0.0007449304 0.0 -0.011206261 -0.0030256163
0000f0 b2 97 82 bc e1 16 0d 3c 9a 0d 54 3a 33 e1 00 bc
       -0.015941475 0.008611412 0.0008089185 -0.007866192
000100 42 d6 5d bc d5 f6 4a bb 2d 93 e5 bb ff 7e c1 bb
       -0.013539853 -0.0030969877 -0.00700607 -0.0059050317
000110 00 00 00 00 84 bb a8 bb 28 0c aa bb 6a f7 de 3c
       0.0 -0.0051493067 -0.0051894374 0.027217586
000120 67 bd c4 bb 50 38 92 3c b8 bd 01 3b fc 2c ce bb
       -0.006004024 0.017849118 0.001979692 -0.0062919836
000130 7c 4e 1f bc 00 00 00 00 eb 2a 8e bb 8b 78 39 bc
       -0.009723302 0.0 -0.0043386123 -0.011320244
000140 28 1b 4f bb b6 d0 77 3c 00 00 00 00 bd 72 b3 3c
       -0.003160188 0.015125444 0.0 0.021905297
000150 01 b6 67 3c 8a bf aa 3a 74 7f a3 3a ca 11 92 3b
       0.014142514 0.0013027054 0.0012473897 0.004457687
000160 16 aa 79 bc db f6 5a 3c 9c 1d 3b 3b 9d 2b 63 3c
       -0.015238306 0.013364519 0.0028551584 0.013865379
000170 3b d3 94 bb e5 95 bb bb a2 8f 5e 3c a2 af 17 3c
       -0.004541782 -0.005724656 0.013584049 0.009258183
000180 00 00 00 00 01 a2 65 bc 8e 38 ac 3a 00 00 00 00
       0.0 -0.0140156755 0.0013139413 0.0
000190 d2 93 46 3a d5 d8 f3 bb 00 00 00 00 59 5c 3a bc
       0.00075751275 -0.00744162 0.0 -0.011374556
0001a0 ce d9 ae 39 89 8a 11 bc 51 03 08 bb a6 95 fa 3b
       0.00033350143 -0.008883127 -0.002075393 0.007647234
0001b0 ce 1f 60 3b 00 00 00 00 8d db 15 bc 9e 72 4a bc
       0.0034198645 0.0 -0.009146583 -0.012356428
0001c0 00 00 00 00 7b 27 c0 3c da 6e 89 bc 40 6e f1 3a
       0.0 0.023456326 -0.016776491 0.0018419698
0001d0 c8 e0 46 3c 00 00 00 00 43 2b 65 bc 00 a8 66 3c
       0.012138553 0.0 -0.013987365 0.01407814
0001e0 25 db 58 3c 6c 62 d1 bb 34 ad 33 3c 16 1c 0b bb
       0.013235842 -0.0063899066 0.010966588 -0.0021226457
0001f0 da 79 71 3c b8 80 1e bc 43 56 92 bb 62 96 06 ba
       0.014738524 -0.009674244 -0.0044658496 -0.0005134103

arith.constant8 f4 [3]
000000 26 ba 66 3b 97 53 6c bc aa 78 02 3c
       0.0035206168 -0.014424226 0.007963339

sequential_1/conv2d_1/Relu;sequential_1/conv2d_1/add;sequential_1/conv2d_1/convolution; f4 [32, 3, 3, 3]
000000 09 37 d3 39 50 64 ce 39 ad 5f e9 39 aa 12 f1 b9
       0.0004028606 0.0003936612 0.00044512507 -0.00045981008
000010 0c 3c 7b b9 fa b1 15 39 36 06 ce b9 a4 e4 cb 39
       -0.00023959595 0.00014276049 -0.0003929601 0.00038889528
000020 22 37 dc 39 07 1a 81 b9 db d3 05 3a 17 e9 24 3a
       0.00042002747 -0.0002462419 0.0005105116 0.00062908366
000030 44 c4 39 38 ca 47 31 b9 0c e9 f4 b6 75 54 c0 b9
       4.4290224e-05 -0.00016906779 -7.298897e-06 -0.0003668402
000040 35 2e a1 b9 ae 68 8d 39 cc ab 0c 3a 55 5f e6 b9
       -0.0003074274 0.00026971608 0.0005366176 -0.00043940046
000050 36 44 9e 39 e3 9e d5 38 05 32 06 3a d4 cc 08 39
       0.0003018693 0.000101862264 0.0005119148 0.00013046275
000060 3e c1 c6 b8 18 f0 11 b9 e8 46 55 b9 a6 55 87 39
       -9.47737e-05 -0.0001391772 -0.00020339678 0.0002581302
000070 c5 7f fc b9 ba e5 ef 39 88 39 bd b9 0c e8 b6 39
       -0.0004816038 0.00045756792 -0.00036091753 0.00034886634
000080 e0 04 3b 39 53 77 8f 39 73 79 be b9 0e aa d8 b9
       0.00017835526 0.0002736399 -0.0003633011 -0.0004132543
000090 40 78 15 3a 30 e5 a7 b9 f4 78 98 38 b4 53 9c 32
       0.00057018176 -0.0003202348 7.270454e-05 1.8198854e-08
0000a0 5e 78 18 ba f8 69 e1 b9 25 c9 66 b9 00 ee 07 ba
       -0.0005816276 -0.00042994297 -0.00022009441 -0.0005185306
0000b0 2e e2 e9 38 40 38 e4 39 d7 0d 36 b9 22 0e c1 39
       0.00011152435 0.00043529458 -0.00017362028 0.00036822358
0000c0 87 43 28 38 7d 88 55 b9 3a d9 e7 b8 ae ba 0c 3a
       4.011721e-05 -0.00020364109 -0.000110554 0.00053683936
0000d0 00 1d b9 39 0d 87 b3 b8 92 99 c7 b7 20 50 8d b9
       0.00035307556 -8.56054e-05 -2.379416e-05 -0.00026953313
0000e0 76 8a 28 39 df 9d 1f 3a 82 08 f9 b9 d2 8e a9 39
       0.00016073309 0.0006088893 -0.0004749932 0.000323406
0000f0 7f e3 c2 39 f5 9b 11 ba 05 bd b6 b9 bc 39 87 b9
       0.0003717206 -0.00055545504 -0.00034854576 -0.00025792222
000100 aa af f2 b9 8f e7 59 39 21 b3 ef b6 5a b4 fd b9
       -0.00046288717 0.00020780995 -7.1436084e-06 -0.00048390293
000110 3d b1 d1 39 07 01 9c b9 93 3a 97 39 bf cf f6 39
       0.0003999564 -0.00029755404 0.00028844606 0.0004707556
000120 14 73 cb 37 8b da f8 39 bf 70 97 38 a6 30 bb b9
       2.4253073e-05 0.00047465073 7.221242e-05 -0.00035703665
000130 f9 41 c7 39 44 e0 f8 38 b3 bd 60 39 00 e7 00 ba
       0.0003800539 0.00011867334 0.00021432973 -0.0004917234
000140 96 24 06 3a a3 e9 62 39 5f 6b 1a 39 64 da c3 b9
       0.0005117146 0.00021640076 0.00014726583 -0.00037356012
000150 00 2b e4 b9 2d ec 6d b9 77 cf 6a 38 37 c5 57 39
       -0.00043519586 -0.00022690064 5.5983164e-05 0.00020577466
000160 82 3c 2e 39 4f 7c 2b b9 62 79 eb 39 0d 65 b9 39
       0.00016616474 -0.0001635414 0.0004491313 0.00035361238
000170 51 df ff 39 48 0d 48 b9 5b bc 39 39 46 2c c3 39
       0.00048803774 -0.00019078434 0.00017713143 0.00037226285
000180 ea 20 c7 39 b5 0a ad 37 87 04 13 39 f4 b0 f6 b8
       0.0003798076 2.0628193e-05 0.00014020699 -0.00011763154
000190 6e 9d 77 38 fe df a2 39 f5 b0 fd b9 9a 0f cf 38
       5.9036007e-05 0.00031065935 -0.00048387764 9.873435e-05
0001a0 69 62 cc b9 b3 87 34 b8 2d 68 14 ba d5 d7 14 3a
       -0.00038983233 -4.3041724e-05 -0.00056612754 0.00056779134
0001b0 ae c6 28 38 4f 2f 96 39 c4 0f 86 39 c0 dc 2d b9
       4.0239356e-05 0.00028645477 0.00025570218 -0.00016580801
0001c0 38 89 bd 39 d1 b7 97 b9 c3 92 f5 b9 55 b9 23 3a
       0.00036151125 -0.00028937918 -0.00046839388 0.0006245573
0001d0 5d 7d d9 b8 68 2f 77 38 ac 70 9e b9 ad 95 12 38
       -0.00010370717 5.893354e-05 -0.00030220055 3.494851e-05
0001e0 47 38 08 ba dc 2e ac 39 b2 2a 96 b9 ba 13 a8 b9
       -0.0005196374 0.0003284131 -0.0002864204 -0.00032058154
0001f0 8d 4c 15 39 26 01 4d b9 3a 2a c8 39 42 89 88 38
       0.00014238265 -0.00019550751 0.00038178434 6.5105516e-05
000200 6d 44 c1 b9 e0 9b 7a b8 05 00 ab 39 54 4d 66 39
       -0.0003686281 -5.9749815e-05 0.00032615676 0.00021963316
000210 cf 46 e6 b9 3b 5c a3 39 cf ad 93 b9 5c 9b 6f b8
       -0.00043921775 0.000311585 -0.00028167522 -5.712673e-05
000220 e5 8a 13 ba 93 18 07 ba d6 30 11 ba 9a 84 8c 39
       -0.0005628302 -0.0005153503 -0.0005538588 0.00026801677
000230 c5 7e 63 39 97 23 a3 39 60 d1 c4 39 b5 05 6f b8
       0.00021695632 0.000311163 0.0003754003 -5.6987355e-05
000240 88 42 c1 39 dc b6 bb b9 6a 41 03 39 6f dc 10 ba
       0.00036861398 -0.0003580366 0.00012517502 -0.0005526011
000250 d1 17 fd b9 18 b5 7b b9 85 36 f3 39 dc 6e a3 b9
       -0.00048273665 -0.00024004688 0.00046389192 -0.0003117238
000260 97 a2 43 39 5b 45 f7 b9 f3 92 a6 b9 66 35 bd 37
       0.00018657219 -0.00047163185 -0.00031771473 2.2555421e-05
000270 0b d3 e8 39 93 78 f5 39 5b 08 7a 39 59 ff ad 39
       0.00044407728 0.00046819876 0.0002384497 0.0003318738
000280 3a 62 80 39 2a af 0a 3a d3 30 bc 37 55 c3 d9 b9
       0.00024487247 0.00052903837 2.2434082e-05 -0.00041535
000290 43 fb 88 b8 e1 b5 02 3a 49 a8 c8 35 74 23 f2 b7
       -6.5317865e-05 0.00049862085 1.4950139e-06 -2.8865157e-05
0002a0 15 68 8a 39 fc 9a bd 39 67 f6 31 b8 be 40 b1 39
       0.00026398958 0.00036164362 -4.242957e-05 0.00033808307
0002b0 82 c3 0f ba f8 5b fb b9 f5 69 41 39 9a 71 ae 39
       -0.000548415 -0.00047942973 0.00018445386 0.00033272506
0002c0 0e 61 26 ba 6a 8b 8f b9 f1 d1 b0 b9 6b ed 1b 38
       -0.000634686 -0.00027378957 -0.00033725754 3.7175992e-05
0002d0 d8 32 a5 39 8e c0 b6 b9 74 4b 59 b8 ed 97 0e 3a
       0.00031509134 -0.0003485721 -5.1807103e-05 0.0005439509
0002e0 77 1a 2e b9 97 ff e8 b8 88 b8 fc b9 28 4d ff 39
       -0.00016603792 -0.000111102294 -0.00048202672 0.00048694876
0002f0 64 2a cb b9 c6 a6 29 b9 c1 a0 c8 b9 3c 83 71 39
       -0.0003875076 -0.00016179224 -0.00038266744 0.0002303244
000300 40 f8 bc 39 46 01 8a 39 ac 18 69 b8 a7 fc 01 39
       0.00036043115 0.0002632236 -5.5574506e-05 0.00012396519
000310 dc 8c 90 b9 2c 83 f2 39 c0 7a b3 39 7b 27 17 b8
       -0.0002757077 0.00046255568 0.00034232996 -3.6037974e-05
000320 73 73 a1 b9 d5 b3 60 b9 65 54 4b 38 c5 82 20 b9
       -0.0003079433 -0.00021429297 4.847757e-05 -0.00015307505
000330 35 16 19 ba 5b 9a e8 b9 84 89 90 b9 42 3d a6 b8
       -0.0005839796 -0.00044365492 -0.00027568277 -7.926907e-05
000340 e2 1e 2d b7 80 42 02 ba eb cf ea b9 9d 5b d9 37
       -1.0318794e-05 -0.0004969016 -0.0004478687 2.5911077e-05
000350 1c 4b eb b9 f0 50 ec 39 1f 0a bb 39 ef f6 25 b9
       -0.00044878654 0.0004507373 0.0003567496 -0.00015827616
000360 90 6f d1 39 73 72 0f 3a 0a 95 19 3a 3f c5 14 ba
       0.00039946707 0.00054720714 0.00058586954 -0.0005675144
000370 38 df 3c b9 3a 75 51 b9 a8 b9 f9 39 40 f4 61 b9
       -0.00018012233 -0.00019975464 0.00047631306 -0.00021548662
000380 cd 96 16 39 9b f2 19 ba 77 4f 92 38 3e 39 23 b7
       0.00014361292 -0.0005872638 6.976624e-05 -9.728885e-06
000390 2d fe 8f 38 74 ef b4 39 a3 f3 c4 39 53 73 d2 37
       6.866115e-05 0.00034510682 0.00037565557 2.5087653e-05
0003a0 02 56 c1 39 bb 36 94 39 d7 da c9 39 ee c3 b3 39
       0.0003687591 0.00028269537 0.00038500756 0.0003428752
0003b0 b5 ba b5 b8 63 eb 0c ba 32 f0 a1 b9 35 08 af 39
       -8.6655295e-05 -0.00053756515 -0.00030887272 0.00033384716
0003c0 ec c4 fa 39 59 1b d7 39 63 e8 1f 3a 47 c2 65 b9
       0.00047830434 0.0004102837 0.0006099997 -0.00021911516
0003d0 fd 9f c3 39 2b 31 82 b9 14 93 c5 38 9c 68 05 39
       0.000373125 -0.00024832165 9.4210875e-05 0.00012722838
0003e0 ac f7 a3 39 be 91 4b b9 74 2b 99 39 f8 57 49 38
       0.00031274313 -0.00019413882 0.0002921481 4.800406e-05
0003f0 e3 9f 6b 38 d8 16 f8 39 c4 1b c3 39 c5 bb a1 37
       5.6177272e-05 0.00047319266 0.00037213985 1.9280133e-05
